backend/app/Market/notebook/universal_lstm.onnx (onnx, 231868 bytes, 9 tensors)

functional_12_1/sequential_2_1/lstm_5_1/lstm_cell_1/add_1/ReadVariableOp/resource:0 f4 [256]
-0.012573432 0.0012023118 0.02666359 -0.0024196813 0.005730513 -0.02913943 -0.037132546 0.016012779
-0.029075796 -0.003799683 -0.00412688 -0.034080636 -0.024374465 -0.012633799 0.0024372253 0.0035566676
-0.018859787 -0.007948555 0.031325717 -0.0037903516 -0.014946238 0.00800086 0.036487207 0.009029547
0.01748292 -0.004508249 -0.048735775 0.01212753 -0.012651178 -0.003941784 -0.019297281 -0.022752343
-0.007980565 0.008220438 -0.04020056 0.0010602098 -0.019292993 0.0067565804 -0.0008468407 -0.027717322
-0.0056156004 -0.0026866994 0.0055611767 -0.02187631 -0.022779278 0.002127484 -0.037365522 -0.0050192154
-0.06346893 -0.0059094517 0.00054761005 0.0029061632 -0.0018121011 0.0023351943 0.01592619 0.0145746
0.015680416 -0.009666536 -0.0020223677 -0.0073081767 -0.008941069 -0.012265446 0.011349474 -0.003045258
0.97459644 0.9795391 0.94599056 0.9867088 0.94562376 0.949998 0.92190456 0.9885921
0.9525856 0.9704818 0.9104573 0.9351139 0.94582456 0.9701775 0.9930012 0.97812986
0.96262044 0.95272464 0.9423305 0.9661551 0.97321904 0.9992801 0.95300066 0.98425233
0.95827836 0.9879449 0.9398962 0.981114 0.97705925 0.99112755 0.9516289 0.95638853
0.990748 0.95857054 0.9339598 0.9915099 0.96930873 0.970742 0.9922573 0.92965525
0.9607553 0.97801745 0.9874506 0.92751557 0.9673156 0.9915708 0.9493556 0.9534041
0.9195575 0.93461025 0.98438686 0.9918539 0.98405164 0.96934646 0.96959394 0.9862117
1.0057002 0.98049766 0.97573334 0.9370312 0.9702432 0.9840525 0.96160144 0.9750731
0.0017061392 0.0065878876 -0.005954462 -0.009712559 -0.010363294 0.0014736993 0.002026982 0.007543354
0.005264863 0.003508136 -0.010212993 0.0047480334 -0.005441451 0.006922388 0.0043745893 -1.3786772e-05
0.00027873745 0.0019204995 0.004995667 0.0050097224 0.00016700418 -0.0015054634 -0.0029862085 -0.0008759524
0.007393444 0.001489521 0.010001185 -0.0005208596 0.0022115705 -0.0023055589 0.014270967 -0.0046506575
-0.0034578873 0.008661054 -0.0022862162 -0.006506161 -0.0057986923 8.8133515e-05 0.0027642387 0.0037433072
-0.000274535 0.0028448522 0.0043886183 0.004537078 -0.011604958 -0.00018897897 -0.008454524 -0.0041626855
-0.004425836 0.0042956504 -8.955777e-05 -0.0011382618 -0.014982024 0.0038320315 -0.0008724082 -0.0059283823
0.0026944869 0.0055504153 -0.0053489967 0.0061509823 -0.0007281763 0.00028572956 0.00018793921 0.0127084395
-0.012575164 0.0010238446 0.026216215 -0.0030901707 0.0051587773 -0.02921163 -0.037076846 0.016587825
-0.029417425 -0.0045073805 -0.004861631 -0.034086656 -0.024501972 -0.012659371 0.001905524 0.0034716388
-0.019647088 -0.009388554 0.030754525 -0.0045152945 -0.0140280835 0.007809623 0.035557006 0.008114291
0.01687147 -0.0054233004 -0.0481372 0.011556747 -0.0133361835 -0.004467499 -0.021164037 -0.023405178
-0.009333434 0.006822371 -0.040338043 0.0008456707 -0.020851836 0.0061082738 -0.0015332457 -0.027459744
-0.006532043 -0.00351641 0.004151469 -0.022481503 -0.023008097 0.0018807652 -0.03899346 -0.00500942
-0.063978 -0.008234563 -0.0005026086 0.0030066217 -0.0033488006 0.0022768928 0.014983461 0.013617249
0.015405057 -0.009449159 -0.0029074233 -0.0064584785 -0.008604125 -0.011994786 0.009848107 -0.0033791042
00000000: cc00 4ebc e496 9d3a 9a6d da3c 8493 1ebb
00000010: 07c7 bb3b d0b5 eebc 4c18 18bd 3b2d 833c
00000020: 5d30 eebc 1a04 79bb c73a 87bb 2398 0bbd
00000030: f5ac c7bc fefd 4ebc dbb9 1f3b fb16 693b
00000040: d77f 9abc a83a 02bc 654f 003d 8c67 78bb
00000050: 11e1 74bc 0a16 033c 9c73 153d aaf0 133c
00000060: 5738 8f3c efb9 93bb 2a9f 47bd 8cb2 463c
00000070: e346 4fbc 152a 81bb 5515 9ebc 1f63 babc
00000080: eac0 02bc 04af 063c 58a9 24bd bdf6 8a3a
00000090: 570c 9ebc 4e66 dd3b 84fe 5dba 700f e3bc
000000a0: 1203 b8bb 5613 30bb 883a b63b f335 b3bc
000000b0: 9c9b babc 426d 0b3b 970c 19bd 3b78 a4bb
000000c0: 00fc 81bd 13a4 c1bb 7d8d 0f3a 5475 3e3b
000000d0: 0684 edba 0f0a 193b a477 823c 4eca 6e3c
000000e0: 3774 803c 6460 1ebc b389 04bb 6e79 efbb
000000f0: 907d 12bc 02f5 48bc 25f3 393c f492 47bb
00000100: 277f 793f 13c3 7a3f 702c 723f f398 7c3f
00000110: 6614 723f 1233 733f f001 6c3f 5f14 7d3f
00000120: a6dc 733f 7f71 783f bb13 693f a063 6f3f
00000130: 8f21 723f 8d5d 783f 5435 7e3f b866 7a3f
00000140: 4b6e 763f c3e5 733f 923c 713f f155 773f
00000150: e224 793f d2d0 7f3f daf7 733f f6f7 7b3f
00000160: bb51 753f f5e9 7c3f 0a9d 703f 492a 7b3f
00000170: 8e20 7a3f 89ba 7d3f f49d 733f e1d5 743f
00000180: a9a1 7d3f e164 753f fd17 6f3f 98d3 7d3f
00000190: 9e24 783f 8c82 783f 9304 7e3f e3fd 6d3f
000001a0: 0ff4 753f 5a5f 7a3f 90c9 7c3f a971 6d3f
000001b0: ffa1 773f 95d7 7d3f f808 733f 4b12 743f
000001c0: 1f68 6b3f 9e42 6f3f c700 7c3f 23ea 7d3f
000001d0: cfea 7b3f 1727 783f 4f37 783f 5f78 7c3f
000001e0: c9ba 803f e501 7b3f a9c9 793f 47e1 6f3f
000001f0: dc61 783f ddea 7b3f 832b 763f 649e 793f
00000200: 88a0 df3a 35df d73b a61d c3bb 6d21 1fbc
00000210: ceca 29bc 2529 c13a 1dd7 043b 3d2e f73b
00000220: df84 ac3b c1e8 653b 6654 27bc 6495 9b3b
00000230: 334e b2bb 33d5 e23b b758 8f3b bc4d 67b7
00000240: 8223 9239 45b9 fb3a b1b2 a33b 9928 a43b
00000250: d81d 2f39 f852 c5ba 44b4 43bb 2ca0 65ba
00000260: b444 f23b 083c c33a 03dc 233c 4c8a 08ba
00000270: ffef 103b dc18 17bb c6d0 693c 8b64 98bb
00000280: b99d 62bb 18e7 0d3c 58d4 15bb a231 d5bb
00000290: f502 bebb 52d4 b838 3b28 353b 4652 753b
000002a0: 77ef 8fb9 b370 3a3b 66ce 8f3b c5ab 943b
000002b0: b922 3ebc a828 46b9 d884 0abc 2367 88bb
000002c0: 9a06 91bb 87c2 8c3b f6d0 bbb8 ba31 95ba
000002d0: 2a77 75bc d222 7b3b 53b2 64ba e042 c2bb
000002e0: fd95 303b 42e0 b53b a346 afbb 2e8e c93b
000002f0: 16e3 3eba f9cd 9539 8c11 4539 0f37 503c
00000300: 1008 4ebc 8632 863a 63c3 d63c 7684 4abb
00000310: f60a a93b 3a4d efbc e4dd 17bd 31e3 873c
00000320: d0fc f0bc a6b2 93bb 514e 9fbb 739e 0bbd
00000330: 5cb8 c8bc 4069 4fbc c7c2 f93a 6f84 633b
00000340: eef2 a0bc 73d2 19bc eaf0 fb3c 09f5 93bb
00000350: 0cd6 65bc dee7 ff3b 39a4 113d cef1 043c
00000360: 0936 8a3c f1b5 b1bb 832b 45bd 8358 3d3c
00000370: 0280 5abc 1964 92bb 3460 adbc 37bc bfbc
00000380: 42eb 18bc 328e df3b 8139 25bd 00b0 5d3a
00000390: 78d1 aabc ea27 c83b 30f7 c8ba 42f3 e0bc
000003a0: c00a d6bb 9273 66bb 0c09 883b 212b b8bc
000003b0: 7a7b bcbc 0284 f63a 9bb7 1fbd 1026 a4bb
000003c0: e606 83bd 43ea 06bc 7ec1 03ba be0a 453b
000003d0: 8d77 5bbb ec37 153b 317d 753c e21a 5f3c
000003e0: 7e65 7c3c a5d0 1abc 788a 3ebb a5a1 d3bb
000003f0: 51f8 0cbc c785 44bc f459 213c f673 5dbb

functional_12_1/sequential_2_1/lstm_5_1/lstm_cell_1/Cast_1/ReadVariableOp/resource:0 f4 [64, 256]
0.025556678 0.011933384 0.02708038 0.01096842 -0.018250179 -0.009565103 -0.043271285 -0.08709096
-0.038893215 -0.09468403 0.043335687 0.056131065 0.057268366 0.01633212 -0.02263096 -0.06624557
-0.013815645 -0.08662765 0.00012641106 -0.04478766 0.18745978 -0.014609318 0.045603562 -0.1331397
0.036303338 -0.011317313 0.1101352 -0.013530175 -7.605005e-05 -0.026893165 -0.022060933 0.0015008211
0.043492228 0.0051480415 -0.091931604 -0.0685166 -0.058057003 0.025853382 -0.006244019 -0.049100872
0.030749831 -0.021990843 0.09157262 0.044184353 -0.05965215 -0.12144419 -0.023115838 0.044496223
-0.04331627 -0.028102387 -0.011087423 0.044677135 -0.03094301 -0.077845186 -0.072879285 -0.19081506
0.116662264 -0.013122141 0.0077352547 -0.013362098 -0.029449776 -0.013513878 0.038304772 0.03093373
0.024278864 -0.027996894 -0.008206562 0.11683708 -0.07577302 -0.109999 -0.0803918 0.06793051
-0.034308814 0.04527219 -0.03890091 -0.029562425 -0.014571385 0.026969478 0.005195449 -0.050282907
0.03372826 -0.0710964 0.09687777 -0.021373613 0.06432039 0.020493293 -0.089267045 -0.10400857
-0.11082744 -0.053611904 -0.039800353 -0.07657904 -0.00043397665 0.031966668 -0.056513794 -0.06640767
0.08046025 -0.058878638 0.031691443 -0.08485328 -0.044076495 -0.052882083 -0.039126754 0.026725937
-0.0224387 -0.076415725 0.04367892 -0.036689494 0.07771404 0.04159014 0.07532615 0.041866742
-0.017738072 0.051890336 -0.08965601 -0.07327854 0.049750675 0.14937608 -0.048900187 -0.039959963
-0.04253743 0.04099348 -0.023448225 -0.029532686 -0.01174795 0.101860315 -0.11408593 -0.06446787
-0.11260612 -0.0060132123 -0.083632804 -0.027051907 -0.0770179 0.032997422 0.023960356 -0.06965943
-0.055554792 0.007646413 -0.033873897 0.087002456 0.00285685 0.020989541 -0.00016038452 -0.08034896
-0.004976731 -0.051990557 0.038541395 -0.011724677 0.08596956 0.09371323 -0.009442908 -0.21316147
0.10514447 0.12791304 -0.039138228 0.013804101 0.06474888 -0.02603043 -0.038802184 0.02732296
-0.093484245 0.023153558 0.015402806 -0.024758738 0.054878026 0.048874572 -0.0036305098 0.08329729
0.0058188005 -0.06114183 -0.037462726 -0.12756203 -0.06774086 0.09168832 -0.05177763 -0.14510633
0.09690324 -0.03211303 -0.0042656367 -0.0077181477 -0.026964318 0.038306277 0.07257799 -0.020571474
-0.07976322 -0.028362209 -0.064283244 -0.027492791 0.010298564 0.03576143 -0.023653988 0.105835095
-0.031520527 0.070408784 -0.16141939 -0.1340238 -0.022738472 -0.089761555 -0.08182581 -0.053825296
-0.05079263 0.032492682 0.023261506 0.043212548 0.05385805 0.020881252 0.033078257 0.08225059
-0.1187319 0.07380977 -0.014615301 0.028209867 -0.042936366 -0.06529465 0.06382231 -0.04418898
-0.02314361 -0.0980191 -0.06970514 -0.06541351 0.013345302 0.043704644 0.027085064 -0.0037160988
0.0035738635 -0.00065302366 0.08877798 0.07026532 -0.020304447 0.03653938 0.02965333 -0.06361716
-0.044560205 -0.047933124 0.09159424 0.024743116 0.045904417 -0.038987707 -0.0016765681 -0.026345553
-0.01843469 0.08841445 -0.07512761 -0.05101805 0.035618067 -0.06655486 -0.004807266 0.11842709
-0.030203043 -0.016389137 0.028938193 0.038639028 -0.09059438 -0.09404529 -0.016642554 0.00925848
00000000: 3d5c d13c 3e84 433c acd7 dd3c e3b4 333c
00000010: 6681 95bc f3b6 1cbc 3b3d 31bd bf5c b2bd
00000020: 7e4e 1fbd b3e9 c1bd c380 313d b0e9 653d
00000030: 3c92 6a3d f0ca 853c 9064 b9bc c2ab 87bd
00000040: 045b 62bc d669 b1bd 368d 0439 4473 37bd
00000050: 75f5 3f3e ec5b 6fbc cdca 3a3d c655 08be
00000060: cfb2 143d 406c 39bc 908e e13d abad 5dbc
00000070: 0f7d 9fb8 0e4f dcbc 21b9 b4bc 33b7 c43a
00000080: e824 323d e7b0 a83b a346 bcbd 6e52 8cbd
00000090: 2ecd 6dbd 79ca d33c a19a ccbb ff1d 49bd
000000a0: 12e7 fb3c 2426 b4bc 6d8a bb3d a7fa 343d
000000b0: d055 74bd bbb7 f8bd 6d5d bdbc ac41 363d
000000c0: 676c 31bd fa36 e6bc 06a8 35bc 5fff 363d
000000d0: 327c fdbc 4c6d 9fbd bc41 95bd 0665 43be
000000e0: a0ec ee3d 40fe 56bc 0578 fd3b b3ec 5abc
000000f0: a840 f1bc 5069 5dbc 77e5 1c3d bc68 fd3c
00000100: 78e4 c63c be59 e5bc d174 06bc 4748 ef3d
00000110: e32e 9bbd 2847 e1bd 75a4 a4bd 271f 8b3d
00000120: 6687 0cbd 556f 393d 9056 1fbd e62c f2bc
00000130: d2bc 6ebc 18ef dc3c 963e aa3b 73f5 4dbd
00000140: a526 0a3d fd9a 91bd da67 c63d b717 afbc
00000150: 69ba 833d 8de1 a73c a4d1 b6bd 7202 d5bd
00000160: 7ff9 e2bd 2898 5bbd b205 23bd 79d5 9cbd
00000170: 5c87 e3b9 7bef 023d 027b 67bd bf00 88bd
00000180: 58c8 a43d ba2a 71bd e3ce 013d 8ec7 adbd
00000190: 8e89 34bd e29a 58bd 6043 20bd 5af0 da3c
000001a0: 5dd1 b7bc d97f 9cbd abe8 323d b947 16bd
000001b0: 8a28 9f3d 6c5a 2a3d 9944 9a3d 767c 2b3d
000001c0: 6f4f 91bc f68a 543d 929d b7bd 0f13 96bd
000001d0: 5dc7 4b3d 0bf6 183e 904b 48bd 0fad 23bd
000001e0: ba3b 2ebd c7e8 273d 7e16 c0bc 88ee f1bc
000001f0: 797a 40bc 249c d03d e2a5 e9bd bb07 84bd
00000200: 0a9e e6bd 7b0a c5bb ad47 abbd f69b ddbc
00000210: 90bb 9dbd 4e28 073d 8248 c43c 9aa9 8ebd
00000220: 6c8d 63bd c38e fa3b 5bbf 0abd 582e b23d
00000230: fd39 3b3b 42f2 ab3c e42c 28b9 ff8d a4bd
00000240: d813 a3bb 0df4 54bd 95dd 1d3d dc18 40bc
00000250: cf10 b03d b9ec bf3d 6db6 1abc 0047 5abe
00000260: fc55 d73d a3fb 023e 684f 20bd 992a 623c
00000270: 109b 843d c53d d5bc 0aef 1ebd 66d4 df3c
00000280: ab74 bfbd 88ac bd3c 0d5c 7c3c d6d2 cabc
00000290: c8c7 603d b430 483d d9ed 6dbb c597 aa3d
000002a0: a3ab be3b db6f 7abd 8472 19bd 9f9f 02be
000002b0: b8bb 8abd 16c7 bb3d c814 54bd c196 14be
000002c0: 3575 c63d f488 03bd c1c6 8bbb 84e8 fcbb
000002d0: 46e4 dcbc 0be7 1c3d c5a3 943d 8285 a8bc
000002e0: e65a a3bd dd57 e8bc efa6 83bd 9038 e1bc
000002f0: 4fbb 283c 947a 123d 02c6 c1bc 12c0 d83d
00000300: ab1b 01bd 7b32 903d 204b 25be 893d 09be
00000310: 0846 babc e8d4 b7bd 4a94 a7bd ea77 5cbd
00000320: ef0b 50bd 0c17 053d ea8e be3c a4ff 303d
00000330: 429a 5c3d 290f ab3c 117d 073d ff72 a83d
00000340: b629 f3bd 9429 973d 0475 6fbc 6118 e73c
00000350: 0bde 2fbd 34b9 85bd 45b5 823d 81ff 34bd
00000360: ab97 bdbc 3dbe c8bd 92c1 8ebd 85f7 85bd
00000370: 41a6 5a3c a403 333d 7fe1 dd3c cb89 73bb
00000380: 7b37 6a3b ad2f 2bba 3bd1 b53d 44e7 8f3d
00000390: 8355 a6bc 51aa 153d 8aeb f23c b749 82bd
000003a0: c384 36bd 8655 44bd c395 bb3d 13b2 ca3c
000003b0: 4506 3c3d 93b1 1fbd 4ac0 dbba a1d2 d7bc
000003c0: 5904 97bc a312 b53d 81dc 99bd 4ef8 50bd
000003d0: 40e4 113d ea4d 88bd 4586 9dbb e789 f23d
000003e0: 5f6c f7bc 8342 86bc ca0f ed3c f543 1e3d
000003f0: 8c89 b9bd d19a c0bd f755 88bc e1b0 173c

functional_12_1/sequential_2_1/lstm_5_1/lstm_cell_1/Cast/ReadVariableOp/resource:0 f4 [64, 256]
0.037644897 -0.1474054 0.07922222 -0.016390603 -0.035651404 -0.060027942 -0.07837164 -0.048631553
-0.1470588 0.07058373 0.05936788 0.008691776 0.096191294 0.098836266 -0.078255154 0.0055541615
0.041925643 -0.11294636 0.060688328 -0.10419749 0.097249515 -0.072513714 0.11082158 -0.009889075
0.08823193 -0.06446024 0.018096264 0.01930556 -0.16465437 -0.05064111 -0.022347396 0.11635429
-0.046808604 -0.037228506 -0.09468398 -0.051800866 -0.17709641 0.00032251672 0.07867874 -0.0077093933
0.04594597 -0.078134544 -0.09440141 -0.08206082 0.040543918 0.056481827 0.004480368 0.00026878086
0.0046021505 -0.11214035 -0.13255358 0.106800534 0.0922443 -0.02956386 0.06025607 -0.14578895
-0.122092746 -0.14644328 0.0025030035 0.101789966 0.020875532 0.06472733 0.05538815 0.059550583
0.10110465 -0.14368801 -0.15806502 -0.053526312 0.049474932 0.016230213 -0.006834095 0.093295075
-0.15862691 -0.099561706 0.054640535 0.10557812 0.0047347005 -0.09482535 0.06118851 0.0029734701
-0.0011076948 0.08736704 0.021984914 -0.119304776 0.08357637 0.025353394 -0.005690563 -0.14928977
0.017487368 -0.15027949 -0.041093133 -0.13876633 0.048231065 -0.031457115 -0.046551302 -0.008692072
-0.052762657 -0.08622332 -0.16858888 0.10869463 -0.09566073 0.027565908 0.04621053 -0.012720543
-0.15916641 -0.14326951 -0.035005245 0.02508862 -0.13874497 -0.1328796 -0.16654566 -0.104923405
-0.06775155 -0.14106439 -0.15412986 0.05854148 -0.06546271 -0.081030846 -0.04781203 0.013036034
-0.022271141 -0.117496245 -0.06705955 0.069309704 0.06852569 -0.117921874 0.03586408 -0.14538287
-0.14399196 -0.040968873 -0.12699115 -0.07162051 -0.13613665 0.1687968 0.19818752 0.15658915
0.10034851 -0.0074727684 -0.0407516 0.15509175 -0.14145795 0.049926277 -0.055445958 0.023873523
-0.040407807 -0.19226491 0.19638507 0.041226815 0.09656395 -0.07125737 0.13096535 0.10562019
-0.014771995 0.10604928 0.016803544 0.039003063 0.016489904 -0.077223286 0.0627122 -0.045091197
-0.062160537 -0.0007166455 0.013641922 -0.12460678 -0.020229524 -0.043904193 -0.03169752 0.17552827
0.07544431 -0.054713253 -0.016638892 0.0013451533 0.121577084 0.1317329 0.11927802 -0.19583668
-0.089224644 0.08771052 0.039671484 -0.047158234 0.019371388 -0.068936296 0.09435605 -0.059883546
-0.10667675 0.03351393 -0.07587497 0.054689653 -0.07645751 -0.13015431 -0.04228964 0.17774688
-0.013336609 0.010863525 -0.04555572 -0.022886705 -0.013193123 -0.022652812 -0.027618477 0.07907898
-0.18607886 0.094801016 0.02703744 -0.16285558 -0.055219747 -0.097396575 -0.18709935 0.06158313
-0.0960382 -0.0016289253 0.07347762 0.0058099763 -0.08064369 0.060946167 0.04325086 -0.17021357
-0.17314722 -0.07475178 -0.03564087 -0.009982319 -0.03938191 -0.00095835305 0.037953287 -0.1144356
-0.027002374 -0.075383216 -0.038963698 -0.079088576 -0.03550883 0.017961117 -0.07341897 -0.059149403
-0.08905374 -0.1500364 -0.022450961 -0.049095694 -0.10790136 -0.018316284 -0.14760253 -0.12298372
-0.047062952 -0.017735714 0.047911134 -0.041522954 -0.028431091 -0.0007131396 0.017867092 -0.015282244
-0.07271664 -0.16319388 0.0024373499 -0.16159864 -0.12419901 -0.016784824 0.015914913 -0.09763748
00000000: 8931 1a3d 71f1 16be 423f a23d 9645 86bc
00000010: 3507 12bd dcdf 75bd 4f81 a0bd e131 47bd
00000020: 9596 16be 348e 903d bc2b 733d f367 0e3c
00000030: f1ff c43d ab6a ca3d 3d44 a0bd afff b53b
00000040: 39ba 2b3d 6c50 e7bd 5394 783d 7e65 d5bd
00000050: c12a c73d 1282 94bd 6df6 e23d c905 22bc
00000060: f1b2 b43d bb03 84bd 9e3e 943c b226 9e3c
00000070: 289b 28be 0d6d 4fbd e311 b7bc 284b ee3d
00000080: 61ba 3fbd eb7c 18bd ade9 c1bd 252d 54bd
00000090: c358 35be 7617 a939 5222 a13d 149f fcbb
000000a0: d731 3c3d 0105 a0bd 8755 c1bd 810f a8bd
000000b0: 6111 263d 7d59 673d 0dd0 923b 28eb 8c39
000000c0: a3cd 963b d7a9 e5bd 20bc 07be 3dba da3d
000000d0: 94ea bc3d e82f f2bc 12cf 763d b349 15be
000000e0: c30b fabd 3af5 15be 6e09 243b 4277 d03d
000000f0: 2a03 ab3c c38f 843d afde 623d 50eb 733d
00000100: f40f cf3d f322 13be ccdb 21be 683e 5bbd
00000110: 3aa6 4a3d 39f5 843c 8bf0 dfbb 7d11 bf3d
00000120: 186f 22be 02e7 cbbd c1ce 5f3d 5739 d83d
00000130: 8c25 9b3b cb33 c2bd cea0 7a3d 8dde 423b
00000140: 1230 91ba 7eed b23d b519 b43c 1056 f4bd
00000150: 162a ab3d ecb1 cf3c e777 babb 6bdf 18be
00000160: ab41 8f3c dee2 19be 4651 28bd c318 0ebe
00000170: f08d 453d 2dd9 00bd 94ac 3ebd 3169 0ebc
00000180: a81d 58bd da95 b0bd 90a2 2cbe 4a9b de3d
00000190: c6e9 c3bd e6d1 e13c 4147 3d3d d369 50bc
000001a0: 85fc 22be 3eb5 12be a961 0fbd a686 cd3c
000001b0: 2913 0ebe 9711 08be f28a 2abe 15e2 d6bd
000001c0: 53c1 8abd 2f73 10be 38d4 1dbe 31c9 6f3d
000001d0: 5011 86bd 80f3 a5bd 8cd6 43bd 1795 553c
000001e0: f871 b6bc dfa1 f0bd 8456 89bd 3ff2 8d3d
000001f0: 3257 8c3d 0681 f1bd 37e6 123d 3fdf 14be
00000200: a172 13be face 27bd f809 02be c6ad 92bd
00000210: 6867 0bbe 11d9 2c3e abf1 4a3e e858 203e
00000220: 8583 cd3d 20de f4bb 26eb 26bd 5fd0 1e3e
00000230: 5ada 10be 7f7f 4c3d 4d1b 63bd 6892 c33c
00000240: a882 25bd 18e1 44be 2b19 493e 73dd 283d
00000250: 52c3 c53d 62ef 91bd c81b 063e 664f d83d
00000260: 3d06 72bc 5d30 d93d 96a7 893c adc1 1f3d
00000270: d615 873c 3e27 9ebd 416f 803d 8cb1 38bd
00000280: 0c9c 7ebd 44dd 3bba 5e82 5f3c d731 ffbd
00000290: 63b8 a5bc e2d4 33bd 42d5 01bd afbd 333e
000002a0: 8c82 9a3d 011b 60bd 494e 88bc db4f b03a
000002b0: 68fd f83d fde4 063e 0948 f43d 6989 48be
000002c0: 69bb b6bd 93a1 b33d 917e 223d fe28 41bd
000002d0: bfb0 9e3c 792e 8dbd bf3d c13d 7348 75bd
000002e0: 5779 dabd e745 093d 5664 9bbd 4202 603d
000002f0: c195 9cbd 2c47 05be e737 2dbd 4703 363e
00000300: cb81 5abc edfc 313c a298 3abd e67c bbbc
00000310: f827 58bc 6492 b9bc 2540 e2bc 29f4 a13d
00000320: 758b 3ebe 0927 c23d 9f7d dd3c 9dc3 26be
00000330: 1a2e 62bd db77 c7bd f996 3fbe 983e 7c3d
00000340: adaf c4bd aa81 d5ba 6f7b 963d 9d61 be3b
00000350: 8528 a5bd b0a2 793d d027 313d 774c 2ebe
00000360: 814d 31be 7617 99bd 29fc 11bd e18c 23bc
00000370: ed4e 21bd fc39 7bba e874 1b3d 365d eabd
00000380: 1534 ddbc 8462 9abd 6698 1fbd 31f9 a1bd
00000390: b571 11bd 3123 933c af5c 96bd a546 72bd
000003a0: cf61 b6bd 24a3 19be 14eb b7bc 9118 49bd
000003b0: 63fb dcbd 080c 96bc 1e25 17be e3de fbbd
000003c0: 15c5 40bd 7d4a 91bc 773e 443d f913 2abd
000003d0: 52e8 e8bc fdf1 3aba 025e 923c 6162 7abc
000003e0: 76ec 94bd 4c1c 27be f2bb 1f3b 1d7a 25be
000003f0: 0d5c febd 5480 89bc fe5f 823c 29f6 c7bd

functional_12_1/sequential_2_1/lstm_4_1/lstm_cell_1/add_1/ReadVariableOp/resource:0 f4 [256]
0.030352693 0.06612037 0.030547762 0.064519405 0.027115056 0.029818326 -0.0078211175 -0.010023082
0.08135897 0.082684845 0.079222724 0.07682744 0.05704616 -0.16704158 0.023736471 0.10419732
0.012377183 0.008982143 0.09576422 0.048093654 0.17704175 -0.0058178403 0.0509556 0.18276858
0.013842991 0.02558024 0.046784006 0.027745737 -0.015308223 0.02932567 0.008270915 -0.068536304
0.035322815 0.0062344847 -0.017248549 0.0663786 -0.0012068768 0.022966301 0.13671085 0.11690827
0.07467056 0.0031524806 -0.10246857 0.0022883217 0.09388 0.010833035 0.015967123 0.014898962
0.013096034 0.01971635 0.07987226 0.012827755 0.017417261 0.035365302 0.07393727 0.05995686
0.026964745 0.002782393 0.03553374 -0.059611302 -0.037714228 -0.02706996 -0.0012712968 0.03668941
0.96346503 0.9637269 0.9528462 0.9789278 0.94999033 0.96727675 0.97085154 0.96049166
0.8918894 0.9777494 0.9427905 0.9776457 0.8708327 0.8200137 0.9873227 0.89564204
0.98090005 0.980011 0.90344274 0.9680706 0.9512079 0.9796138 0.93815696 0.93021524
0.96871144 0.970203 0.9758528 0.98527306 0.97515845 0.9625134 0.966175 0.9111197
0.96975267 0.97594297 0.96469444 0.9620432 0.965492 0.9524924 0.9671608 0.9882997
0.90062624 0.9815471 0.8865754 0.95016116 0.9485338 0.95403445 0.9729876 0.98048466
0.920893 0.9622158 0.9167898 0.96576667 0.9714259 0.9755195 0.9686793 0.97135526
0.9821744 0.97712874 0.9377561 0.90546054 0.90609694 0.90365887 0.97049826 0.9740032
0.029041868 0.046194017 0.051072128 -0.052733883 -0.032472417 -0.049249902 0.051444452 0.021502394
-0.020379098 0.045875575 -0.051934335 0.050196253 0.024099294 -0.0077723106 -0.036646757 -0.023156667
-0.035902202 -0.012529784 0.026886884 -0.024661519 0.03416562 -0.018983638 -0.025279596 0.041078016
-0.0412163 -0.052324522 -0.048138794 -0.039462853 -0.0190948 0.034351658 -0.04425695 0.014762385
-0.041875247 0.0401102 0.009865181 0.032906223 0.0054397197 0.041218024 -0.050005797 -0.05024915
0.030070739 0.04414555 0.005794922 0.014570227 0.025061576 -0.04583082 -0.032777183 0.0399261
-0.02431577 0.021848975 0.03348595 0.01818345 0.051490344 -0.05588658 -0.03929023 -0.03499107
-0.048100032 -0.03195362 0.050158482 -0.014381694 -0.014175753 -0.021747354 0.04192917 0.032741964
0.031924836 0.064608105 0.029772442 0.06400409 0.02607069 0.02818698 -0.006847187 -0.009393753
0.08064968 0.08219858 0.08024264 0.07483558 0.05789674 -0.16745825 0.025197117 0.10593994
0.0143553475 0.0071317637 0.09718186 0.047364112 0.17623705 -0.009172026 0.051195838 0.18218507
0.015365245 0.025868885 0.045375288 0.02767083 -0.015599274 0.027887281 0.007725097 -0.068858065
0.03421398 0.0078622345 -0.01888437 0.06701172 -0.0027335293 0.024522187 0.1353484 0.11691803
0.07071994 0.0008574145 -0.1023198 0.004730891 0.093836755 0.008919527 0.016012846 0.012606274
0.0149912555 0.018013168 0.07860131 0.0154936565 0.017457712 0.03649289 0.07394389 0.05913646
0.023927204 0.00010744112 0.035134964 -0.059127323 -0.03733986 -0.02923062 0.000279732 0.035931963
00000000: 36a6 f83c 1e6a 873d 4d3f fa3c c022 843d
00000010: 6520 de3c 9045 f43c 2524 00bc da37 24bc
00000020: 889f a63d ac56 a93d 863f a23d b457 9d3d
00000030: 3ca9 693d f30c 2bbe fd72 c23c 6865 d53d
00000040: abc9 4a3c d729 133c 0820 c43d dafd 443d
00000050: 6f4a 353e 95a3 bebb d2b6 503d b027 3b3e
00000060: b6cd 623c a78d d13c 96a0 3f3d 074b e33c
00000070: 57cf 7abc 633c f03c bb82 073c c35c 8cbd
00000080: a8ae 103d a64a cc3b d44c 8dbc 81f1 873d
00000090: 1130 9eba d323 bc3c eefd 0b3e 9a6d ef3d
000000a0: e1ec 983d d999 4e3b 0bdb d1bd abf7 153b
000000b0: 2844 c03d 0b7d 313c 7ccd 823c c71a 743c
000000c0: bf90 563c 2f84 a13c 1194 a33d 812b 523c
000000d0: a5ae 8e3c 35db 103d 6c6c 973d 5395 753d
000000e0: 2be5 dc3c cf58 363b d48b 113d fb2a 74bd
000000f0: 3c7a 1abd d2c1 ddbc a4a1 a6ba a347 163d
00000100: a5a5 763f ceb6 763f bbed 733f 039b 7a3f
00000110: 9132 733f 739f 773f ba89 783f c8e2 753f
00000120: dd52 643f c94d 7a3f b85a 713f fd46 7a3f
00000130: e4ee 5e3f 6bec 513f 2ec1 7c3f cc48 653f
00000140: 441c 7b3f 00e2 7a3f 0648 673f 7ad3 773f
00000150: 5c82 733f f8c7 7a3f 0e2b 703f 9622 6e3f
00000160: 79fd 773f 395f 783f 7dd1 793f db3a 7c3f
00000170: fca3 793f 4767 763f 3f57 773f 243f 693f
00000180: b641 783f 66d7 793f 37f6 763f 7748 763f
00000190: 7c2a 773f 8bd6 733f da97 773f 3601 7d3f
000001a0: 718f 663f ac46 7b3f 9bf6 623f c33d 733f
000001b0: 1cd3 723f 9a3b 743f b715 793f 0b01 7b3f
000001c0: a5bf 6b3f c653 763f bdb2 6a3f 7c3c 773f
000001d0: 5eaf 783f a5bb 793f 5efb 773f bdaa 783f
000001e0: c86f 7b3f 1c25 7a3f c910 703f 43cc 673f
000001f0: f8f5 673f 3056 673f 9372 783f 4658 793f
00000200: 36e9 ed3c f035 3d3d 0231 513d 7cff 57bd
00000210: cc01 05bd 44ba 49bd 6bb7 523d ca25 b03c
00000220: 11f2 a6bc 07e8 3b3d 19b9 54bd 969a 4d3d
00000230: e26b c53c deae febb e91a 16bd 0db3 bdbc
00000240: 300e 13bd b949 4dbc e241 dc3c f406 cabc
00000250: 40f1 0b3d 9383 9bbc 2817 cfbc 6c41 283d
00000260: 6cd2 28bd 3d52 56bd 2f2d 45bd cda3 21bd
00000270: b36c 9cbc 53b4 0c3d c746 35bd eedd 713c
00000280: 6185 2bbd 984a 243d 91a1 213c adc8 063d
00000290: ad3f b23b 3bd4 283d e1d2 4cbd 0dd2 4dbd
000002a0: e956 f63c f7d1 343d 54e3 bd3b f6b7 6e3c
000002b0: ef4d cd3c 19b9 3bbd 5e41 06bd 8d89 233d
000002c0: de31 c7bc 9ffc b23c 9028 093d 75f5 943c
000002d0: 8ae7 523d 54e9 64bd cbee 20bd cc52 0fbd
000002e0: 8a04 45bd cde1 02bd fb72 4d3d 32a1 6bbc
000002f0: 6b41 68bc 8227 b2bc ecbd 2b3d 701c 063d
00000300: 9ec3 023d 4151 843d 56e5 f33c 9414 833d
00000310: 3392 d53c 62e8 e63c 5e5e e0bb 41e8 19bc
00000320: a92b a53d bb57 a83d 4156 a43d 6643 993d
00000330: 2225 6d3d 2d7a 2bbe 2f6a ce3c 0af7 d83d
00000340: b132 6b3c 92b1 e93b 4807 c73d df00 423d
00000350: 7c77 343e 4446 16bc bab2 513d b98e 3a3e
00000360: 82be 7b3c fcea d33c 70db 393d f0ad e23c
00000370: 1994 7fbc de73 e43c cf22 fd3b 7505 8dbd
00000380: f523 0c3d 9ad0 003c 65b3 9abc 713d 893d
00000390: 0325 33bb c1e2 c83c c598 0a3e b872 ef3d
000003a0: 9ed5 903d 1dc4 603a 0b8d d1bd 9705 9b3b
000003b0: 7c2d c03d 3523 123c 5f2d 833c 8c8a 4e3c
000003c0: e29d 753c 5a90 933c b9f9 a03d 1bd9 7d3c
000003d0: 7a03 8f3c 9279 153d e56f 973d 1339 723d
000003e0: fc02 c43c 0352 e138 aee9 0f3d 7e2f 72bd
000003f0: aef1 18bd 0e75 efbc fea8 9239 652d 133d

functional_12_1/sequential_2_1/lstm_4_1/lstm_cell_1/Cast_1/ReadVariableOp/resource:0 f4 [64, 256]
0.000434244 0.0837373 -0.044703033 0.03880617 0.008422485 -0.1331453 0.06427441 -0.076330416
-0.030011022 -0.0053904764 0.04092132 -0.09800977 0.018969283 -0.033693254 -0.0015984785 -0.07278857
-0.045287523 0.061911948 0.06447269 0.080558956 0.04559996 0.012890815 -0.0435458 0.09507445
-0.039115135 0.119169325 0.122822076 0.12394301 0.047768753 -0.019287199 -0.03212922 0.015961295
-0.04337228 0.014405474 -0.06665398 0.1098263 -0.08085346 0.02479542 -0.07732702 0.042667475
0.034579195 0.0048147645 -0.021931155 -0.105567195 -0.07579849 0.042592168 0.03799836 0.07756366
0.05456628 -0.008043995 0.16342755 0.16563939 0.0848013 -0.070544764 0.06659485 0.04465255
-0.122691646 -0.0010476782 0.013858194 -0.0010913897 -0.063911 -0.15213126 -0.10016361 0.021586496
0.048522048 -0.06072176 -0.09597144 0.008904887 -0.014645936 -0.049491253 0.018019041 0.034266345
-0.056980357 -0.037787475 -0.030031448 -0.03606006 -0.04241623 -0.07089423 -0.037423983 0.040501043
0.011917752 -0.04606086 -0.0023647454 0.043573413 0.05345385 -0.020839773 -0.047986157 -0.009746589
-0.11187904 -0.11148848 -0.028352689 0.031430077 0.013868511 -0.011634295 0.006507995 0.012051215
0.07440397 -0.058042042 -0.089711525 0.043089956 -0.0065540764 -0.08455822 0.0031525865 -0.077795066
-0.03439891 0.040605783 0.01273734 -0.08605443 0.04505029 -0.023990002 -0.047122013 0.025539884
0.08186341 0.117929414 0.058171306 -0.03994192 0.062715404 -0.08840478 -0.063474745 -0.03946543
-0.009367635 0.027158618 -0.017396117 -0.007962363 -0.018731182 -0.052787073 0.040478706 -0.05360254
-0.019002162 -0.02451202 -0.015090008 0.028647251 -0.0406117 -0.075560234 -0.03861116 -0.043004148
-0.12431917 0.11499517 0.12033982 -0.0071812966 -0.004078776 0.020032497 0.021678332 -0.038266536
-0.101921454 0.0838113 0.0452382 -0.034854427 -0.06448025 -0.019802034 0.0044440655 -0.07272128
0.03172741 0.0039237775 -0.03460954 0.084026776 -0.0016329278 0.0036766485 -0.05973527 -0.013701492
0.08110175 0.1157168 0.054504447 0.08393914 0.04153739 -0.033953834 0.012259102 -0.058964856
0.09313863 -0.043691024 0.022586958 0.015454627 0.03956429 -0.010942614 -0.10072843 -0.009279259
-0.042390082 -0.08243188 -0.098340064 0.17755987 -0.014176123 -0.07071687 0.029668964 -0.039000183
-0.10780876 0.07595787 0.013942607 -0.020378184 -0.020463714 0.081132 0.11872543 -0.012884277
0.1196856 0.022891235 0.10591997 -0.078261025 0.054087207 -0.001492914 -0.07341273 -0.029293291
0.072506346 0.13009039 0.101183236 0.034008887 -0.011972465 0.0030628166 0.04759718 0.033867154
0.108674124 -0.018720295 0.074417196 0.05172995 0.096194014 -0.058946434 -0.050788276 0.045110963
0.00224066 -0.0917797 -0.027044604 0.003914094 -0.15560979 -0.0754156 -0.063003115 -0.021418933
0.16108201 -0.089806855 0.16050108 0.022133136 -0.10020935 -0.017058283 0.036278408 -0.04188359
-0.07583393 -0.030499756 -0.060159985 -0.054625534 -0.09670084 -0.053745847 0.016629647 -0.039562672
0.12129062 -0.022075156 -0.0024322122 0.026589552 -0.015175261 0.046798315 0.016290084 0.026342483
0.04836188 0.019212132 0.02208624 -0.01320091 0.09084504 -0.029211964 0.04830928 0.0099222325
00000000: 3eab e339 767e ab3d 871a 37bd 38f3 1e3d
00000010: 76fe 093c 3e57 08be 4da2 833d 1f53 9cbd
00000020: add9 f5bc 98a2 b0bb 1d9d 273d 59b9 c8bd
00000030: 7865 9b3c f001 0abd 0a84 d1ba 2c12 95bd
00000040: 697f 39bd 6297 7d3d 420a 843d 18fc a43d
00000050: 06c7 3a3d ff33 533c 155d 32bd 65b6 c23d
00000060: 3137 20bd 0c0f f43d 248a fb3d d5d5 fd3d
00000070: 2ba9 433d 3000 9ebc ee99 03bd 43c1 823c
00000080: 22a7 31bd f004 6c3c e281 88bd 9cec e03d
00000090: 8096 a5bd c41f cb3c a15d 9ebd 17c4 2e3d
000000a0: eaa2 0d3d 2cc5 9d3b f7a8 b3bc 9d33 d8bd
000000b0: 3d3c 9bbd 2075 2e3d 2ba4 1b3d b2d9 9e3d
000000c0: e480 5f3d f6ca 03bc 8d59 273e 5f9d 293e
000000d0: 4eac ad3d c679 90bd e162 883d 98e5 363d
000000e0: c245 fbbd 3f52 89ba 7b0d 633c f60c 8fba
000000f0: c5e3 82bd 4cc8 1bbe 9422 cdbd 2ad6 b03c
00000100: 0ebf 463d 61b7 78bd ad8c c4bd cee5 113c
00000110: 82f5 6fbc 57b7 4abd ab9c 933c de5a 0c3d
00000120: 3c64 69bd 0ac7 1abd 8304 f6bc b7b3 13bd
00000130: a4bc 2dbd fe30 91bd e449 19bd 6ce4 253d
00000140: ad42 433c 50aa 3cbd d8f9 1abb 097a 323d
00000150: 6df2 5a3d 2cb8 aabc 228d 44bd 28b0 1fbc
00000160: d720 e5bd 1254 e4bd e643 e8bc d3bc 003d
00000170: c038 633c c59d 3ebc 0541 d53b 7672 453c
00000180: 1c61 983d 7ebd 6dbd adba b7bd 187f 303d
00000190: 94c3 d6bb dc2c adbd a09b 4e3b 0553 9fbd
000001a0: dfe5 0cbd 4052 263d 47b0 503c 4e3d b0bd
000001b0: a786 383d ae86 c4bc 0303 41bd 0539 d13c
000001c0: 01a8 a73d fa84 f13d 0945 6e3d 249a 23bd
000001d0: ef70 803d 910d b5bd 0cff 81bd 81a6 21bd
000001e0: b57a 19bc c07b de3c 4d82 8ebc 9274 02bc
000001f0: 2372 99bc 4237 58bd 00cd 253d 568e 5bbd
00000200: 6caa 9bbc 6fcd c8bc 153c 77bc a4ad ea3c
00000210: 7458 26bd 53bf 9abd bc26 1ebd 1e25 30bd
00000220: 0d9b febd 9682 eb3d b974 f63d 1551 ebbb
00000230: 41a7 85bb 311b a43c c296 b13c 5fbd 1cbd
00000240: 32bc d0bd 42a5 ab3d b14b 393d 84c3 0ebd
00000250: 390e 84bd e037 a2bc 869f 913b e5ee 94bd
00000260: 9af4 013d 0893 803b bcc2 0dbd 3b16 ac3d
00000270: f707 d6ba edf3 703b f8ac 74bd 397c 60bc
00000280: ad18 a63d eefc ec3d 0e40 5f3d 49e8 ab3d
00000290: 1c23 2a3d 2d13 0bbd 67da 483c 2285 71bd
000002a0: 77bf be3d 5cf5 32bd 4908 b93c 6735 7d3c
000002b0: 2a0e 223d a648 33bc b54a cebd 0808 18bc
000002c0: 39a1 2dbd 0cd2 a8bd 8466 c9bd 41d2 353e
000002d0: f842 68bc 02d4 90bd 540c f33c a8be 1fbd
000002e0: d7ca dcbd cd8f 9b3d 886f 643c 26f0 a6bc
000002f0: 85a3 a7bc 8928 a63d 5126 f33d 9318 53bc
00000300: b91d f53d 6686 bb3c 92ec d83d 5147 a0bd
00000310: 8c8a 5d3d e2ad c3ba 6a59 96bd 7cf8 efbc
00000320: 357e 943d 6a36 053e 2839 cf3d e74c 0b3d
00000330: 2828 44bc 89b9 483b 43f5 423d 49b8 0a3d
00000340: 8a90 de3d 4e5b 99bc 0b68 983d c9e2 533d
00000350: 5e01 c53d d171 71bd 5e07 50bd 46c6 383d
00000360: 09d8 123b fff6 bbbd a58c ddbc cd41 803b
00000370: 2c58 1fbe 7e73 9abd c707 81bd c276 afbc
00000380: aff2 243e a8ec b7bd 655a 243e 8d50 b53c
00000390: 8f3a cdbd d0bd 8bbc ab98 143d 218e 2bbd
000003a0: d24e 9bbd a0da f9bc 516a 76bd 06bf 5fbd
000003b0: 170b c6bd 9b24 5cbd e63a 883c 780c 22bd
000003c0: 3767 f83d f5d6 b4bc c065 1fbb 55d2 d93c
000003d0: a8a1 78bc 97af 3f3d c872 853c 31cc d73c
000003e0: 1b17 463d c362 9d3c 34ee b43c a148 58bc
000003f0: f70c ba3d ee4d efbc f4df 453d dc90 223c

functional_12_1/sequential_2_1/lstm_4_1/lstm_cell_1/Cast/ReadVariableOp/resource:0 f4 [1, 256]
-0.14087133 0.14012939 0.17544135 -0.024302851 -0.05025226 0.0070858197 0.17590003 -0.10661655
-0.017784411 0.017736847 -0.019109704 0.1278194 0.017929569 -0.27633375 0.06404942 -0.05109706
0.13204846 -0.05318892 0.038397826 -0.09163443 -0.026772713 -0.01428726 0.05208205 0.044614345
0.15523724 0.02731658 -0.07641708 -0.093877375 1.2393626e-05 0.06757949 0.039059646 -0.03422401
0.17426097 0.08906563 -0.016257074 0.1426374 0.10870343 0.103700355 0.08144411 -0.041288614
0.21178344 -0.056781508 -0.1048354 0.16670397 0.13531832 -0.07514533 0.13222466 -0.007098931
0.14182834 -0.06424322 0.11902923 0.09667731 0.0716193 0.19181016 0.088453956 -0.03229961
-0.067941494 -0.061849657 0.09518882 -0.15477498 -0.058536913 0.0031180861 -0.074595645 0.032422744
0.088055015 -0.06621218 -0.05772956 -0.05351869 0.0754229 -0.13323502 0.008487566 -0.088093564
-0.19774787 0.015098215 0.010672823 -0.12223803 -0.2101623 -0.11895588 -0.051842596 -0.20807847
0.017230025 0.1583983 0.020977326 0.0024875076 -0.185551 -0.07956498 0.03489506 -0.114618555
0.03271729 -0.14789288 -0.13148089 0.10143538 0.10115167 -0.11687716 0.12392211 -0.12723811
0.050266504 0.07219401 -0.005410604 -0.06600203 -0.07849497 0.05867009 0.04061693 0.1417277
-0.18586554 0.042859893 -0.10391538 0.043382693 -0.1545211 -0.12956454 0.08589609 -0.053379815
-0.018166931 -0.022626638 0.06268648 0.05733457 0.09961603 -0.13005681 -0.109023914 -0.1350204
-0.014530892 -0.0043958253 0.09217717 -0.010664065 -0.109917544 -0.23607637 -0.023244288 -0.036972545
-0.060182087 -0.1060377 -0.14007038 0.14378928 0.07480002 0.14584763 -0.13647321 -0.13115034
0.07067552 -0.11684381 0.1321717 -0.13486165 -0.07923026 0.0147986 0.06608987 0.061447185
0.09200217 0.07929 -0.07840802 0.076383024 -0.07706975 0.03866696 0.093509674 -0.11190977
0.14992233 0.13264775 0.13797739 0.06467596 0.02643053 -0.09763676 0.13158832 -0.023016416
0.104066335 -0.11888707 -0.034517586 -0.11055334 -0.017026927 -0.13194577 0.14719084 0.14069444
-0.08858615 -0.11755456 -0.0014651485 -0.053573534 -0.0712968 0.102786765 0.092209816 -0.10528034
0.07184958 -0.07500584 -0.08670788 -0.04742452 -0.12577182 0.13824135 0.09874434 0.11371271
0.12723564 0.08940177 -0.12646449 0.0020250122 0.027480261 0.03524536 -0.13255611 -0.08329915
0.06476645 0.1536176 0.17139968 0.038017202 0.08978029 0.2070246 0.11924644 -0.13049898
0.20590363 -0.0072300043 -0.019028598 0.26007745 0.018001065 0.012420619 0.0976367 0.04368889
-0.044581898 0.08316495 0.06183663 0.040461563 -0.008693667 0.18124856 0.034221318 0.05433426
-0.05482548 0.021007834 0.1496355 -0.025910232 0.012317059 0.167102 0.10646666 -0.12138279
0.19460356 -0.018248746 0.108818375 0.046159476 0.16498773 -0.10494501 0.038717747 -0.021807754
0.25678477 0.16049725 -0.033802733 -0.02756907 0.06768305 0.11607232 0.06735713 0.18173225
0.0016139701 0.10554899 0.12414461 -0.065460004 0.06732681 -0.017782137 0.118543826 0.10613943
0.16689534 0.1540122 0.09175435 -0.08504696 -0.021142973 -0.15094888 -0.07269326 0.15989451
00000000: 9340 10be 147e 0f3e e6a6 333e c616 c7bc
00000010: 50d5 4dbd 2a30 e83b 231f 343e c759 dabd
00000020: 9db0 91bc dd4c 913c f48b 9cbc 17e3 023e
00000030: 08e1 923c 9e7b 8dbe 582c 833d 274b 51bd
00000040: b637 073e a0dc 59bd 0a47 1d3d d5aa bbbd
00000050: 7352 dbbc 1d15 6abc fd53 553d 88bd 363d
00000060: 83f6 1e3e 05c7 df3c 8f80 9cbd c842 c0bd
00000070: 38ee 4f37 1e67 8a3d 02fd 1f3d 7a2e 0cbd
00000080: 7871 323e 0b68 b63d 8e2d 85bc 8a0f 123e
00000090: e79f de3d da60 d43d 2bcc a63d 401e 29bd
000000a0: c2dd 583e ba93 68bd f1b3 d6bd 72b4 2a3e
000000b0: e390 0a3e cbe5 99bd e765 073e 269e e8bb
000000c0: 733b 113e f391 83bd 99c5 f33d c1fe c53d
000000d0: 24ad 923d e269 443e 5927 b53d 994c 04bd
000000e0: e924 8bbd 1156 7dbd 5bf2 c23d 557d 1ebe
000000f0: 67c4 6fbd ce58 4c3b 9ac5 98bd b6cd 043d
00000100: 3056 b43d 409a 87bd d575 6cbd 6a36 5bbd
00000110: 5277 9a3d c36e 08be 6f0f 0b3c 666a b4bd
00000120: 6b7e 4abe 815e 773c 10dd 2e3c ef57 fabd
00000130: c934 57be 249f f3bd e758 54bd 8612 55be
00000140: fb25 8d3c 2a33 223e a4d8 ab3c 7405 233b
00000150: 1501 3ebe f7f2 a2bd 1fee 0e3d 22bd eabd
00000160: 9102 063d 3b71 17be eda2 06be 5abd cf3d
00000170: 9b28 cf3d 4b5d efbd e0ca fd3d b54a 02be
00000180: 40e4 4d3d 74da 933d 704b b1bb 132c 87bd
00000190: f9c1 a0bd 0c50 703d f05d 263d 1121 113e
000001a0: 8953 3ebe db8d 2f3d 96d1 d4bd 0db2 313d
000001b0: c73a 1ebe 91ac 04be 4aea af3d cba4 5abd
000001c0: d1d2 94bc 805b b9bc c561 803d a7d7 6a3d
000001d0: 7d03 cc3d 9d2d 05be ee47 dfbd ca42 0abe
000001e0: fa12 6ebc db0a 90bb 62c7 bc3d 55b8 2ebc
000001f0: 731c e1bd 01be 71be ce6a bebc 8670 17bd
00000200: 7e81 76bd 4b2a d9bd 9c6e 0fbe 7f3d 133e
00000210: c130 993d 1559 153e a2bf 0bbe 464c 06be
00000220: 54be 903d cf4b efbd 0558 073e 2c19 0abe
00000230: 7943 a2bd d475 723c 205a 873d 0bb0 7b3d
00000240: a26b bc3d cc62 a23d 6294 a0bd b46e 9c3d
00000250: bfd6 9dbd 3f61 1e3d 0082 bf3d f330 e5bd
00000260: 3d85 193e d0d4 073e f249 0d3e d474 843d
00000270: d784 d83c c8f5 c7bd 17bf 063e ec8c bcbc
00000280: bb20 d53d 107b f3bd 5062 0dbd ca69 e2bd
00000290: 0e7c 8bbc cb1c 07be 32b9 163e 3412 103e
000002a0: a86c b5bd 72c0 f0bd 3a0a c0ba ec6f 5bbd
000002b0: 0f04 92bd de81 d23d 80d8 bc3d 389d d7bd
000002c0: df25 933d a99c 99bd e793 b1bd 3740 42bd
000002d0: 54ca 00be 248f 0d3e 793a ca3d 36e2 e83d
000002e0: 0f4a 023e 4618 b73d e87f 01be 11b6 043b
000002f0: 491e e13c 705d 103d cabc 07be bf98 aabd
00000300: 46a4 843d ef4d 1d3e 6683 2f3e edb7 1b3d
00000310: bbde b73d 42fe 533e 7a37 f43d 86a1 05be
00000320: 67d8 523e ace9 ecbb dde1 9bbc df28 853e
00000330: f876 933c da7f 4b3c c0f5 c73d 1ff3 323d
00000340: 829b 36bd 6352 aa3d 6848 7d3d 06bb 253d
00000350: e26f 0ebc 3999 393e a72b 0c3d 9a8d 5e3d
00000360: af90 60bd 9f18 ac3c 0c3a 193e b241 d4bc
00000370: 7dcd 493c c91c 2b3e 310b da3d 8a97 f8bd
00000380: 2846 473e 657e 95bc 2bdc de3d b811 3d3d
00000390: 8bf2 283e 69ed d6bd 8096 1e3d 2da6 b2bc
000003a0: 4b79 833e 6459 243e bc74 0abd 88d8 e1bc
000003b0: 699d 8a3d 53b7 ed3d 89f2 893d 0518 3a3e
000003c0: da8b d33a 122a d83d 873f fe3d e50f 86bd
000003d0: a3e2 893d d8ab 91bc 1bc7 f23d a15f d93d
000003e0: 9de6 2a3e 60b5 1d3e b4e9 bb3d 1a2d aebd
000003f0: 0734 adbc 5892 1abe 34e0 94bd 63bb 233e

functional_12_1/sequential_2_1/dense_5_1/Cast/ReadVariableOp:0 f4 [32, 1]
0.29916635 0.29389948 -0.28968763 -0.33617786 0.3468196 0.36985245 -0.2591419 0.25356618
-0.18617773 -0.039046664 0.15155129 0.12734242 0.19672889 -0.03287489 0.078732535 -0.13831386
0.07074051 0.015231122 0.3310871 0.067804076 0.33639 0.15042228 -0.2998766 -0.15268686
0.452642 -0.11586984 -0.11103487 0.30754796 0.3809951 -0.12351623 0.41654816 0.3170638
00000000: 552c 993e fe79 963e f051 94be 811f acbe
00000010: 5792 b13e 4d5d bd3e 3fae 84be 6dd3 813e
00000020: 60a5 3ebe 65ef 1fbd 4330 1b3e 0d66 023e
00000030: 4c73 493e d2a7 06bd 863e a13d 26a2 0dbe
00000040: 67e0 903d f58b 793c 4084 a93e dddc 8a3d
00000050: 4f3b ac3e 4c08 1a3e 6d89 99be f259 1cbe
00000060: b1c0 e73e 2b4d edbd 4066 e3bd ed76 9d3e
00000070: ca11 c33e 14f6 fcbd cd45 d53e 3056 a23e

functional_12_1/sequential_2_1/dense_4_1/Cast/ReadVariableOp:0 f4 [64, 32]
-0.017681714 -0.09915116 -0.055137902 -0.110036 0.060606427 0.063084856 0.035104323 0.041997008
-0.0038996388 0.04624234 0.00035210093 -0.22512384 -0.049322076 -0.007643881 -0.05372269 0.037612103
0.05134013 0.19381228 0.22088784 -0.19789523 0.24859844 -0.08203954 0.13130769 0.23749326
0.08634407 -0.07192116 -0.0824354 -0.06918273 -0.031202244 0.17192313 0.26044694 -0.056788977
-0.08111576 -0.24547376 -0.23762912 0.2002131 0.17165816 -0.042889774 -0.046590775 -0.033492625
0.20370276 0.17244968 -0.11658072 -0.16200455 -0.123023815 -0.16170713 -0.13218364 0.063793555
-0.07092967 0.18678537 -0.20386557 -0.059178952 0.0019727177 -0.11751804 -0.17147473 0.0063436246
-0.08741587 0.056999054 0.023879437 0.11139873 -0.22563665 0.1572769 0.07089185 -0.18330456
0.03673219 0.26945028 -0.062479015 0.036860526 -0.0100124115 0.09110367 -0.12698033 0.09726188
-0.13440552 -0.067851864 0.032922745 -0.23120315 0.19601196 0.08620433 -0.17752193 -0.034455862
-0.01214925 0.19917975 0.18469016 -0.21067882 0.24860863 0.16339941 0.0819441 0.12701257
0.050773658 0.097376406 -0.25921917 -0.17256844 0.1181943 -0.17461787 0.038804308 -0.07074438
0.21150793 -0.209916 -0.1337734 0.12609 0.22240283 0.105869904 0.013685947 0.21506965
0.20727791 -0.020183787 0.07075775 0.06465981 0.13235976 0.25834486 0.112481855 -0.0818095
0.007185369 -0.022602329 0.09957074 0.16438222 0.14014134 -0.047382575 -0.041373294 -0.09181216
-0.22901241 0.034799233 -0.13970019 0.07411656 0.10532542 -0.2642016 -0.1253075 0.14939009
-0.020203386 0.09372198 -0.016360903 -0.11562347 -0.19703232 0.20655145 0.15230253 0.15390636
0.0688714 0.23927288 0.047795143 0.1373231 0.15029386 -0.17931677 -0.19847979 -0.16869125
0.066738054 0.12263173 0.093048505 0.22426838 0.03520052 0.27251709 0.16048077 -0.15379123
0.22902763 -0.042280298 0.069235146 0.013962604 0.052393448 -0.17958438 0.002544767 -0.0035105885
-0.17275353 0.25366923 0.036854837 -0.08923252 -0.104602344 -0.095916785 -0.055069856 -0.25228354
-0.015844751 0.119028665 0.09618506 -0.21098973 0.19327375 -0.17338149 -0.084906444 0.25511092
-0.056069735 -0.016041098 -0.13572286 0.24161983 -0.22754048 -0.03981919 -0.16661055 -0.09493771
0.015448262 0.2577072 -0.031031914 0.09517328 0.10636164 0.09380219 0.0029005725 -0.19514725
0.048370067 0.013867652 -0.20501709 0.1746356 -0.06105153 -0.07281874 0.23804598 -0.20771754
-0.1766077 0.19641048 0.04186555 -0.17881362 0.15209763 -0.04425102 -0.02490662 0.22944409
0.1813641 0.116320424 -0.17404413 0.096185915 -0.070084624 -0.1569399 -0.14551826 0.09215699
-0.07652095 0.103753895 -0.04736127 -0.22014411 0.0829921 0.09990969 0.15877777 -0.0059232423
-0.093765065 -0.14695603 0.10882093 -0.02921668 -0.045667734 -0.19397144 -0.024427358 0.019823276
-0.21601483 -0.031438008 -0.045945894 0.1953419 0.128202 -0.082267 -0.27710044 0.2750881
0.17777053 0.11812715 -0.24354476 0.0687563 -0.21764235 -0.0073448955 0.013781488 0.04888987
0.07882236 0.009311102 -0.033766042 0.016360987 -0.154487 -0.03679487 -0.11936362 -0.09816648
00000000: 3ed9 90bc c30f cbbd 48d8 61bd 8e5a e1bd
00000010: 723e 783d a232 813d 8dc9 0f3d 0e05 2c3d
00000020: 1591 7fbb 9c68 3d3d 309a b839 dd86 66be
00000030: f205 4abd 8579 fabb 530c 5cbd 260f 1a3d
00000040: 074a 523d ba76 463e 6c30 623e 0ca5 4abe
00000050: 9790 7e3e 5904 a8bd 8675 063e 6f31 733e
00000060: 29d5 b03d 674b 93bd e4d3 a8bd adaf 8dbd
00000070: d99b ffbc 9e0c 303e 4d59 853e 8f9b 68bd
00000080: 0520 a6bd 795d 7bbe 0c55 73be aa04 4d3e
00000090: 28c7 2f3e 30ad 2fbd f8d5 3ebd 902f 09bd
000000a0: 7597 503e a696 303e dfc1 eebd 85e4 25be
000000b0: e9f3 fbbd 8e96 25be 265b 07be 32a6 823d
000000c0: 9343 91bd aa44 3f3e 23c2 50be a165 72bd
000000d0: b648 013b 4cad f0bd 1297 2fbe 2ede cf3b
000000e0: 1707 b3bd d777 693d cf9e c33c 0425 e43d
000000f0: 4b0d 67be 320d 213e bf2f 913d 31b4 3bbe
00000100: 7e74 163d 63f5 893e ffe9 7fbd 10fb 163d
00000110: 190b 24bc 9094 ba3d 2207 02be 3d31 c73d
00000120: 9aa1 09be ebf5 8abd 00da 063d 85c0 6cbe
00000130: 5cb7 483e e58b b03d 4fc8 35be 9721 0dbd
00000140: a60d 47bc c7f5 4b3e 6b1f 3d3e 30bc 57be
00000150: 4393 7e3e 2d52 273e 4fd2 a73d 950f 023e
00000160: 0af8 4f3d 486d c73d 60b8 84be c8b5 30be
00000170: da0f f23d 07cf 32be 44f1 1e3d 6ee2 90bd
00000180: 8995 583e 38f4 56be e5fb 08be bd1d 013e
00000190: 91bd 633e 52d2 d83d 063b 603c 383b 5c3e
000001a0: a940 543e 7858 a5bc 70e9 903d 5d6c 843d
000001b0: 5189 073e c745 843e e35c e63d bd8b a7bd
000001c0: 3e73 eb3b 8528 b9bc beeb cb3d d053 283e
000001d0: 3681 0f3e 3b14 42bd 0b77 29bd 0408 bcbd
000001e0: 3b82 6abe a489 0e3d 910d 0fbe 6cca 973d
000001f0: dbb4 d73d 6f45 87be 9c50 00be b7f9 183e
00000200: 9281 a5bc 4ff1 bf3d 4d07 86bc ffcb ecbd
00000210: d7c2 49be 3982 533e 32f5 1b3e a199 1d3e
00000220: 730c 8d3d f303 753e d7c4 433d 6d9e 0c3e
00000230: a2e6 193e d19e 37be 493e 4bbe 66bd 2cbe
00000240: f6ad 883d 5826 fb3d 3790 be3d 9ca6 653e
00000250: 6c2e 103d 5c87 8b3e 1255 243e 737b 1dbe
00000260: 3886 6a3e 1b2e 2dbd 28cb 8d3d 68c3 643c
00000270: 839a 563d f8e4 37be 1bc6 263b e711 66bb
00000280: 4de6 30be efe0 813e 19f5 163d 8abf b6bd
00000290: c139 d6bd 0570 c4bd ee90 61bd 4f2b 81be
000002a0: dacc 81bc 4dc5 f33d acfc c43d b10d 58be
000002b0: 8ee9 453e eb8a 31be 6ee3 adbd e69d 823e
000002c0: 61a9 65bd 9f68 83bc effa 0abe 306b 773e
000002d0: 5f00 69be 7219 23bd f59b 2abe b46e c2bd
000002e0: b51a 7d3c 33f2 833e a436 febc 35ea c23d
000002f0: 22d4 d93d 5d1b c03d 8817 3e3b aed4 47be
00000300: b11f 463d 2635 633c 00f0 51be add3 323e
00000310: 2b11 7abd fe21 95bd 53c2 733e e8b3 54be
00000320: a6d8 34be d41f 493e 367b 2b3d eb1a 37be
00000330: 7bbf 1b3e 8f40 35bd f808 ccbc 64f3 6a3e
00000340: 83b7 393e 6739 ee3d a038 32be 1ffd c43d
00000350: 8788 8fbd dab4 20be bd02 15be cebc bc3d
00000360: 04b7 9cbd ec7c d43d e4fd 41bd 756d 61be
00000370: c3f7 a93d 749d cc3d a496 223e c217 c2bb
00000380: e607 c0bd a47b 16be 82dd de3d d257 efbc
00000390: 170e 3bbd 73a0 46be e21b c8bc 6c64 a23c
000003a0: fe32 5dbe 24c5 00bd c331 3cbd b507 483e
000003b0: 6347 033e 9a7b a8bd 1ce0 8dbe 59d8 8c3e
000003c0: 7a09 363e a6ec f13d cc63 79be 1ad0 8c3d
000003d0: a3dd 5ebe 73ad f0bb c0cb 613c bf40 483d
000003e0: 9e6d a13d 988d 183c 434e 0abd 7a07 863c
000003f0: d731 1ebe 38b6 16bd ea74 f4bd 820b c9bd

functional_12_1/sequential_2_1/dense_4_1/BiasAdd/ReadVariableOp:0 f4 [32]
0.07211677 0.079259634 -0.03908843 -0.018739855 0.07913581 0.07793368 -0.04829813 0.07009359
-0.041527636 -0.052016176 0.06918727 0.03684121 0.08610629 -0.046835452 0.044264786 -0.049572423
0.06573356 -0.009613327 0.07335721 0.040329978 0.07660963 0.08520026 -0.018474597 -0.043736253
0.08279376 -0.024513142 -0.017350957 0.063038215 0.06724165 -0.021975938 0.07356579 0.0709927
00000000: f5b1 933d e052 a23d 311b 20bd 5384 99bc
00000010: f511 a23d b19b 9f3d 43d4 45bd 3a8d 8f3d
00000020: e218 2abd ea0e 55bd 0eb2 8d3d cfe6 163d
00000030: 7f58 b03d 88d6 3fbd fe4e 353d 740c 4bbd
00000040: 519f 863d 3781 1dbc 4e3c 963d 0c31 253d
00000050: 82e5 9c3d 797d ae3d 0a58 97bc c924 33bd
00000060: c68f a93d c9cf c8bc 9823 8ebc 2e1a 813d
00000070: fdb5 893d e206 b4bc a9a9 963d 9f64 913d
