backend/app/ECG/notebook/light_ecg_cnn_balanced.onnx (onnx, 17138 bytes, 4 tensors)

conv1.bias f4 [16]
00000000: b1ed 16bf 7974 5f3f c391 9cbe 7080 5b3f
00000010: 789d 4fbe 7ed5 963e 27ad 383f 7414 123f
00000020: a455 d6be f712 22bf ff95 4d3f a17b 373f
00000030: f9a6 603f b0ca ad3e 10dd 56bf a266 0fbf
-0.5895644 0.872871 -0.30579957 0.85742855 -0.20274913 0.29459757 0.7213921 0.5706246
-0.41862214 -0.6331019 0.80307 0.7167302 0.8775478 0.339437 -0.83931065 -0.5601598

conv2.bias f4 [32]
00000000: 4e79 0c3f aaa7 6bbe 2449 673e 219b 003f
00000010: a7c3 cb3e 2669 333f f72c 953f a160 b4bf
00000020: 6afe c5bf 5867 be3e 3828 873f 4d64 f1be
00000030: 2801 f2bf 2aa0 953f f926 11c0 1727 253f
00000040: 4209 babe 102e 003f c0ea e73d 0831 9abd
00000050: 7685 533f 3005 123f 197c a2be 1171 e73e
00000060: aac0 553f 13f4 f4bf d8dc 693f f385 54be
00000070: 986c 433e a0f1 a43e 4025 adbb a82c a43f
0.54872596 -0.23013178 0.22586495 0.5023671 0.39797708 0.7008232 1.1654347 -1.4091989
-1.5468266 0.3718822 1.0559149 -0.47146836 -1.8906603 1.1689503 -2.2680037 0.6451277
-0.36335188 0.50070286 0.11324072 -0.07528883 0.8262552 0.57039165 -0.31735304 0.4520345
0.8349711 -1.9136986 0.91352606 -0.20754223 0.19084394 0.32215595 -0.0052839816 1.2826128

conv3.bias f4 [64]
00000000: d460 9c3e db81 1ebf ba64 d8bf 7b94 b2be
00000010: 4875 b6bd eb0f e9be d014 3dbe 1e2f b0be
00000020: 1d15 97be da17 bc3e 405b a73d d294 ac3f
00000030: 84d6 0bbf 3fe7 debe 7408 4ebe 7028 1e3d
00000040: 59d2 8ebf 809e 993c 702d 44be 0c81 c2be
00000050: e22e 70bf c3af 42bf f0c7 0d3f 4460 1ebf
00000060: 042f dcbf 9621 6fbe 60b0 8d3d 54b8 95bd
00000070: 003f c43c 785d 963e 6904 bf3e 2087 443d
00000080: 2008 82bc 5b72 babf b8ab 9a3e 9b61 bcbe
00000090: 00b4 753b c09a 24bc 21f7 bf3e 627b 82bf
000000a0: 5747 2a3f 98d9 dcbf 9eb9 efbe a288 96be
000000b0: 69cd 433f 80dd 693e 0598 0fbf 5034 e53e
000000c0: 748b ee3e 90a6 05bd d800 6cbe ddb2 88bf
000000d0: 2451 4e3f 2ae8 d3be b871 0abf 78b7 aebf
000000e0: 00c9 57bd d49e adbe 50c2 cc3e 4886 673f
000000f0: 9d4a 4fbf d7c0 e4be 1216 9c3e 154f 1cbf
0.30542624 -0.61916894 -1.6905739 -0.34878907 -0.089090884 -0.45519957 -0.1846497 -0.34410948
-0.29508296 0.36736947 0.081717014 1.3482916 -0.546242 -0.43535802 -0.20120412 0.038612783
-1.1157943 0.018752337 -0.19157958 -0.3798908 -0.9382154 -0.7604944 0.55383205 -0.6186564
-1.7201848 -0.23352656 0.069184065 -0.073105484 0.023955822 0.29368186 0.37308052 0.047980428
-0.015873015 -1.4566149 0.30209136 -0.36793217 0.0037491322 -0.010046661 0.37493232 -1.0193903
0.66515106 -1.7253904 -0.46821302 -0.29401118 0.76485306 0.22838402 -0.5609134 0.44766474
0.4659077 -0.03262955 -0.23047197 -1.0679585 0.8059256 -0.41388065 -0.5407977 -1.364974
-0.052681923 -0.3391024 0.39992 0.9043927 -0.80973226 -0.44678375 0.30485588 -0.6105817

fc2.bias f4 [5]
00000000: 6a5b 77be 158b a33e ef8d c9be 95d2 f73e
00000010: d3ff 96be
-0.24155965 0.3194205 -0.393661 0.4840285 -0.29492053
